2021-06-26
loss,… mse,… mae,… Loss,autoencoding_loss
Optimizer,Adam
Learning Rate,.001
Steps Per Epoch,50
Batch Size,4096
Epochs,100

Model: "Autoencoder"
_________________________________________________________________
Layer (type)                 Output Shape              Param #   
=================================================================
Phi (Functional)             (None, 3)                 5107      
_________________________________________________________________
Phi_inv (Functional)         (None, 4)                 5108      
=================================================================
Total params: 10,215
Trainable params: 10,215
Non-trainable params: 0
_________________________________________________________________
Model: "Phi"
_________________________________________________________________
Layer (type)                 Output Shape              Param #   
=================================================================
input_1 (InputLayer)         [(None, 4)]               0         
_________________________________________________________________
encoding_layer_1 (Dense)     (None, 16)                80        
_________________________________________________________________
encoding_layer_2 (Dense)     (None, 32)                544       
_________________________________________________________________
encoding_layer_3 (Dense)     (None, 64)                2112      
_________________________________________________________________
encoding_layer_4 (Dense)     (None, 32)                2080      
_________________________________________________________________
encoding_layer_5 (Dense)     (None, 8)                 264       
_________________________________________________________________
bottleneck (Dense)           (None, 3)                 27        
=================================================================
Total params: 5,107
Trainable params: 5,107
Non-trainable params: 0
_________________________________________________________________
Model: "Phi_inv"
_________________________________________________________________
Layer (type)                 Output Shape              Param #   
=================================================================
input_2 (InputLayer)         [(None, 3)]               0         
_________________________________________________________________
decoding_layer_1 (Dense)     (None, 8)                 32        
_________________________________________________________________
decoding_layer_2 (Dense)     (None, 32)                288       
_________________________________________________________________
decoding_layer_3 (Dense)     (None, 64)                2112      
_________________________________________________________________
decoding_layer_4 (Dense)     (None, 32)                2080      
_________________________________________________________________
decoding_layer_5 (Dense)     (None, 16)                528       
_________________________________________________________________
decoded_layer (Dense)        (None, 4)                 68        
=================================================================
Total params: 5,108
Trainable params: 5,108
Non-trainable params: 0
_________________________________________________________________
