2021-06-26
loss,… mse,… mae,… Loss,autoencoding_loss
Optimizer,Adam
Learning Rate,.001
Steps Per Epoch,50
Batch Size,4096
Epochs,100

Model: "Autoencoder"
_________________________________________________________________
Layer (type)                 Output Shape              Param #   
=================================================================
Phi (Functional)             (None, 3)                 17291     
_________________________________________________________________
Phi_inv (Functional)         (None, 4)                 17292     
=================================================================
Total params: 34,583
Trainable params: 34,583
Non-trainable params: 0
_________________________________________________________________
Model: "Phi"
_________________________________________________________________
Layer (type)                 Output Shape              Param #   
=================================================================
input_1 (InputLayer)         [(None, 4)]               0         
_________________________________________________________________
encoding_layer_1 (Dense)     (None, 8)                 40        
_________________________________________________________________
encoding_layer_2 (Dense)     (None, 32)                288       
_________________________________________________________________
encoding_layer_3 (Dense)     (None, 256)               8448      
_________________________________________________________________
encoding_layer_4 (Dense)     (None, 32)                8224      
_________________________________________________________________
encoding_layer_5 (Dense)     (None, 8)                 264       
_________________________________________________________________
bottleneck (Dense)           (None, 3)                 27        
=================================================================
Total params: 17,291
Trainable params: 17,291
Non-trainable params: 0
_________________________________________________________________
Model: "Phi_inv"
_________________________________________________________________
Layer (type)                 Output Shape              Param #   
=================================================================
input_2 (InputLayer)         [(None, 3)]               0         
_________________________________________________________________
decoding_layer_1 (Dense)     (None, 8)                 32        
_________________________________________________________________
decoding_layer_2 (Dense)     (None, 32)                288       
_________________________________________________________________
decoding_layer_3 (Dense)     (None, 256)               8448      
_________________________________________________________________
decoding_layer_4 (Dense)     (None, 32)                8224      
_________________________________________________________________
decoding_layer_5 (Dense)     (None, 8)                 264       
_________________________________________________________________
decoded_layer (Dense)        (None, 4)                 36        
=================================================================
Total params: 17,292
Trainable params: 17,292
Non-trainable params: 0
_________________________________________________________________
