2021-06-26
loss,… mse,… mae,… Loss,autoencoding_loss
Optimizer,Adam
Learning Rate,.001
Steps Per Epoch,50
Batch Size,4096
Epochs,100

Model: "Autoencoder"
_________________________________________________________________
Layer (type)                 Output Shape              Param #   
=================================================================
Phi (Functional)             (None, 3)                 36451     
_________________________________________________________________
Phi_inv (Functional)         (None, 4)                 36452     
=================================================================
Total params: 72,903
Trainable params: 72,903
Non-trainable params: 0
_________________________________________________________________
Model: "Phi"
_________________________________________________________________
Layer (type)                 Output Shape              Param #   
=================================================================
input_1 (InputLayer)         [(None, 4)]               0         
_________________________________________________________________
encoding_layer_1 (Dense)     (None, 32)                160       
_________________________________________________________________
encoding_layer_2 (Dense)     (None, 64)                2112      
_________________________________________________________________
encoding_layer_3 (Dense)     (None, 256)               16640     
_________________________________________________________________
encoding_layer_4 (Dense)     (None, 64)                16448     
_________________________________________________________________
encoding_layer_5 (Dense)     (None, 16)                1040      
_________________________________________________________________
bottleneck (Dense)           (None, 3)                 51        
=================================================================
Total params: 36,451
Trainable params: 36,451
Non-trainable params: 0
_________________________________________________________________
Model: "Phi_inv"
_________________________________________________________________
Layer (type)                 Output Shape              Param #   
=================================================================
input_2 (InputLayer)         [(None, 3)]               0         
_________________________________________________________________
decoding_layer_1 (Dense)     (None, 16)                64        
_________________________________________________________________
decoding_layer_2 (Dense)     (None, 64)                1088      
_________________________________________________________________
decoding_layer_3 (Dense)     (None, 256)               16640     
_________________________________________________________________
decoding_layer_4 (Dense)     (None, 64)                16448     
_________________________________________________________________
decoding_layer_5 (Dense)     (None, 32)                2080      
_________________________________________________________________
decoded_layer (Dense)        (None, 4)                 132       
=================================================================
Total params: 36,452
Trainable params: 36,452
Non-trainable params: 0
_________________________________________________________________
