2021-06-26
loss,… mse,… mae,… Loss,autoencoding_loss
Optimizer,Adam
Learning Rate,.001
Steps Per Epoch,50
Batch Size,4096
Epochs,100

Model: "Autoencoder"
_________________________________________________________________
Layer (type)                 Output Shape              Param #   
=================================================================
Phi (Functional)             (None, 3)                 69227     
_________________________________________________________________
Phi_inv (Functional)         (None, 4)                 69228     
=================================================================
Total params: 138,455
Trainable params: 138,455
Non-trainable params: 0
_________________________________________________________________
Model: "Phi"
_________________________________________________________________
Layer (type)                 Output Shape              Param #   
=================================================================
input_1 (InputLayer)         [(None, 4)]               0         
_________________________________________________________________
encoding_layer_1 (Dense)     (None, 8)                 40        
_________________________________________________________________
encoding_layer_2 (Dense)     (None, 128)               1152      
_________________________________________________________________
encoding_layer_3 (Dense)     (None, 256)               33024     
_________________________________________________________________
encoding_layer_4 (Dense)     (None, 128)               32896     
_________________________________________________________________
encoding_layer_5 (Dense)     (None, 16)                2064      
_________________________________________________________________
bottleneck (Dense)           (None, 3)                 51        
=================================================================
Total params: 69,227
Trainable params: 69,227
Non-trainable params: 0
_________________________________________________________________
Model: "Phi_inv"
_________________________________________________________________
Layer (type)                 Output Shape              Param #   
=================================================================
input_2 (InputLayer)         [(None, 3)]               0         
_________________________________________________________________
decoding_layer_1 (Dense)     (None, 16)                64        
_________________________________________________________________
decoding_layer_2 (Dense)     (None, 128)               2176      
_________________________________________________________________
decoding_layer_3 (Dense)     (None, 256)               33024     
_________________________________________________________________
decoding_layer_4 (Dense)     (None, 128)               32896     
_________________________________________________________________
decoding_layer_5 (Dense)     (None, 8)                 1032      
_________________________________________________________________
decoded_layer (Dense)        (None, 4)                 36        
=================================================================
Total params: 69,228
Trainable params: 69,228
Non-trainable params: 0
_________________________________________________________________
