2021-06-26
loss,… mse,… mae,… Loss,autoencoding_loss
Optimizer,Adam
Learning Rate,.001
Steps Per Epoch,50
Batch Size,4096
Epochs,100

Model: "Autoencoder"
_________________________________________________________________
Layer (type)                 Output Shape              Param #   
=================================================================
Phi (Functional)             (None, 3)                 37675     
_________________________________________________________________
Phi_inv (Functional)         (None, 4)                 37676     
=================================================================
Total params: 75,351
Trainable params: 75,351
Non-trainable params: 0
_________________________________________________________________
Model: "Phi"
_________________________________________________________________
Layer (type)                 Output Shape              Param #   
=================================================================
input_1 (InputLayer)         [(None, 4)]               0         
_________________________________________________________________
encoding_layer_1 (Dense)     (None, 8)                 40        
_________________________________________________________________
encoding_layer_2 (Dense)     (None, 512)               4608      
_________________________________________________________________
encoding_layer_3 (Dense)     (None, 64)                32832     
_________________________________________________________________
bottleneck (Dense)           (None, 3)                 195       
=================================================================
Total params: 37,675
Trainable params: 37,675
Non-trainable params: 0
_________________________________________________________________
Model: "Phi_inv"
_________________________________________________________________
Layer (type)                 Output Shape              Param #   
=================================================================
input_2 (InputLayer)         [(None, 3)]               0         
_________________________________________________________________
decoding_layer_1 (Dense)     (None, 64)                256       
_________________________________________________________________
decoding_layer_2 (Dense)     (None, 512)               33280     
_________________________________________________________________
decoding_layer_3 (Dense)     (None, 8)                 4104      
_________________________________________________________________
decoded_layer (Dense)        (None, 4)                 36        
=================================================================
Total params: 37,676
Trainable params: 37,676
Non-trainable params: 0
_________________________________________________________________
