2021-06-26
loss,… mse,… mae,… Loss,autoencoding_loss
Optimizer,Adam
Learning Rate,.001
Steps Per Epoch,50
Batch Size,4096
Epochs,100

Model: "Autoencoder"
_________________________________________________________________
Layer (type)                 Output Shape              Param #   
=================================================================
Phi (Functional)             (None, 3)                 50115     
_________________________________________________________________
Phi_inv (Functional)         (None, 4)                 50116     
=================================================================
Total params: 100,231
Trainable params: 100,231
Non-trainable params: 0
_________________________________________________________________
Model: "Phi"
_________________________________________________________________
Layer (type)                 Output Shape              Param #   
=================================================================
input_1 (InputLayer)         [(None, 4)]               0         
_________________________________________________________________
encoding_layer_1 (Dense)     (None, 64)                320       
_________________________________________________________________
encoding_layer_2 (Dense)     (None, 512)               33280     
_________________________________________________________________
encoding_layer_3 (Dense)     (None, 32)                16416     
_________________________________________________________________
bottleneck (Dense)           (None, 3)                 99        
=================================================================
Total params: 50,115
Trainable params: 50,115
Non-trainable params: 0
_________________________________________________________________
Model: "Phi_inv"
_________________________________________________________________
Layer (type)                 Output Shape              Param #   
=================================================================
input_2 (InputLayer)         [(None, 3)]               0         
_________________________________________________________________
decoding_layer_1 (Dense)     (None, 32)                128       
_________________________________________________________________
decoding_layer_2 (Dense)     (None, 512)               16896     
_________________________________________________________________
decoding_layer_3 (Dense)     (None, 64)                32832     
_________________________________________________________________
decoded_layer (Dense)        (None, 4)                 260       
=================================================================
Total params: 50,116
Trainable params: 50,116
Non-trainable params: 0
_________________________________________________________________
