2021-06-26
loss,… mse,… mae,… Loss,autoencoding_loss
Optimizer,Adam
Learning Rate,.001
Steps Per Epoch,50
Batch Size,4096
Epochs,100

Model: "Autoencoder"
_________________________________________________________________
Layer (type)                 Output Shape              Param #   
=================================================================
Phi (Functional)             (None, 3)                 41891     
_________________________________________________________________
Phi_inv (Functional)         (None, 4)                 41892     
=================================================================
Total params: 83,783
Trainable params: 83,783
Non-trainable params: 0
_________________________________________________________________
Model: "Phi"
_________________________________________________________________
Layer (type)                 Output Shape              Param #   
=================================================================
input_1 (InputLayer)         [(None, 4)]               0         
_________________________________________________________________
encoding_layer_1 (Dense)     (None, 32)                160       
_________________________________________________________________
encoding_layer_2 (Dense)     (None, 256)               8448      
_________________________________________________________________
encoding_layer_3 (Dense)     (None, 128)               32896     
_________________________________________________________________
bottleneck (Dense)           (None, 3)                 387       
=================================================================
Total params: 41,891
Trainable params: 41,891
Non-trainable params: 0
_________________________________________________________________
Model: "Phi_inv"
_________________________________________________________________
Layer (type)                 Output Shape              Param #   
=================================================================
input_2 (InputLayer)         [(None, 3)]               0         
_________________________________________________________________
decoding_layer_1 (Dense)     (None, 128)               512       
_________________________________________________________________
decoding_layer_2 (Dense)     (None, 256)               33024     
_________________________________________________________________
decoding_layer_3 (Dense)     (None, 32)                8224      
_________________________________________________________________
decoded_layer (Dense)        (None, 4)                 132       
=================================================================
Total params: 41,892
Trainable params: 41,892
Non-trainable params: 0
_________________________________________________________________
