2021-06-26
loss,… mse,… mae,… Loss,autoencoding_loss
Optimizer,Adam
Learning Rate,.001
Steps Per Epoch,50
Batch Size,4096
Epochs,100

Model: "Autoencoder"
_________________________________________________________________
Layer (type)                 Output Shape              Param #   
=================================================================
Phi (Functional)             (None, 3)                 149155    
_________________________________________________________________
Phi_inv (Functional)         (None, 4)                 149156    
=================================================================
Total params: 298,311
Trainable params: 298,311
Non-trainable params: 0
_________________________________________________________________
Model: "Phi"
_________________________________________________________________
Layer (type)                 Output Shape              Param #   
=================================================================
input_1 (InputLayer)         [(None, 4)]               0         
_________________________________________________________________
encoding_layer_1 (Dense)     (None, 32)                160       
_________________________________________________________________
encoding_layer_2 (Dense)     (None, 512)               16896     
_________________________________________________________________
encoding_layer_3 (Dense)     (None, 256)               131328    
_________________________________________________________________
bottleneck (Dense)           (None, 3)                 771       
=================================================================
Total params: 149,155
Trainable params: 149,155
Non-trainable params: 0
_________________________________________________________________
Model: "Phi_inv"
_________________________________________________________________
Layer (type)                 Output Shape              Param #   
=================================================================
input_2 (InputLayer)         [(None, 3)]               0         
_________________________________________________________________
decoding_layer_1 (Dense)     (None, 256)               1024      
_________________________________________________________________
decoding_layer_2 (Dense)     (None, 512)               131584    
_________________________________________________________________
decoding_layer_3 (Dense)     (None, 32)                16416     
_________________________________________________________________
decoded_layer (Dense)        (None, 4)                 132       
=================================================================
Total params: 149,156
Trainable params: 149,156
Non-trainable params: 0
_________________________________________________________________
