2021-06-26
loss,… mse,… mae,… Loss,autoencoding_loss
Optimizer,Adam
Learning Rate,.001
Steps Per Epoch,50
Batch Size,4096
Epochs,100

Model: "Autoencoder"
_________________________________________________________________
Layer (type)                 Output Shape              Param #   
=================================================================
Phi (Functional)             (None, 3)                 9643      
_________________________________________________________________
Phi_inv (Functional)         (None, 4)                 9644      
=================================================================
Total params: 19,287
Trainable params: 19,287
Non-trainable params: 0
_________________________________________________________________
Model: "Phi"
_________________________________________________________________
Layer (type)                 Output Shape              Param #   
=================================================================
input_1 (InputLayer)         [(None, 4)]               0         
_________________________________________________________________
encoding_layer_1 (Dense)     (None, 8)                 40        
_________________________________________________________________
encoding_layer_2 (Dense)     (None, 128)               1152      
_________________________________________________________________
encoding_layer_3 (Dense)     (None, 64)                8256      
_________________________________________________________________
bottleneck (Dense)           (None, 3)                 195       
=================================================================
Total params: 9,643
Trainable params: 9,643
Non-trainable params: 0
_________________________________________________________________
Model: "Phi_inv"
_________________________________________________________________
Layer (type)                 Output Shape              Param #   
=================================================================
input_2 (InputLayer)         [(None, 3)]               0         
_________________________________________________________________
decoding_layer_1 (Dense)     (None, 64)                256       
_________________________________________________________________
decoding_layer_2 (Dense)     (None, 128)               8320      
_________________________________________________________________
decoding_layer_3 (Dense)     (None, 8)                 1032      
_________________________________________________________________
decoded_layer (Dense)        (None, 4)                 36        
=================================================================
Total params: 9,644
Trainable params: 9,644
Non-trainable params: 0
_________________________________________________________________
