2021-07-07
loss,… mse,… mae,… val_loss,… val_mse,… val_mae,… Loss,L2_loss
Optimizer,Adam
Learning Rate,.001
Steps Per Epoch,18
Batch Size,50000
Epochs,500
dataset,2000inits_dt0p01
validation,200inits

Model: "functional_1"
_________________________________________________________________
Layer (type)                 Output Shape              Param #   
=================================================================
input_1 (InputLayer)         [(None, 3)]               0         
_________________________________________________________________
nonlinear_layer_1 (Dense)    (None, 128)               512       
_________________________________________________________________
nonlinear_layer_2 (Dense)    (None, 512)               66048     
_________________________________________________________________
nonlinear_layer_3 (Dense)    (None, 1024)              525312    
_________________________________________________________________
nonlinear_layer_4 (Dense)    (None, 1024)              1049600   
_________________________________________________________________
nonlinear_layer_5 (Dense)    (None, 512)               524800    
_________________________________________________________________
nonlinear_layer_6 (Dense)    (None, 128)               65664     
_________________________________________________________________
evolved_state_layer (Dense)  (None, 3)                 387       
=================================================================
Total params: 2,232,323
Trainable params: 2,232,323
Non-trainable params: 0
_________________________________________________________________
