…
loss,… mse,… mae,… L2_loss,… val_loss,… val_mse,… val_mae,… val_L2_loss,… Loss,L2_loss,L2_loss
Optimizer,Adam,Adam
Learning Rate,.001,0.0001
Steps Per Epoch,1,1
Batch Size,160000,160000
Epochs,250,500
dataset,50inits_dt0p1
Model: "functional_1"
_________________________________________________________________
Layer (type)                 Output Shape              Param #   
=================================================================
input_1 (InputLayer)         [(None, 3)]               0         
_________________________________________________________________
nonlinear_layer_1 (Dense)    (None, 64)                256       
_________________________________________________________________
nonlinear_layer_2 (Dense)    (None, 128)               8320      
_________________________________________________________________
nonlinear_layer_3 (Dense)    (None, 512)               66048     
_________________________________________________________________
nonlinear_layer_4 (Dense)    (None, 256)               131328    
_________________________________________________________________
nonlinear_layer_5 (Dense)    (None, 128)               32896     
_________________________________________________________________
nonlinear_layer_6 (Dense)    (None, 32)                4128      
_________________________________________________________________
evolved_state_layer (Dense)  (None, 3)                 99        
=================================================================
Total params: 243,075
Trainable params: 243,075
Non-trainable params: 0
_________________________________________________________________
