…
Optimizer,Adam,Adam,Adam,Adam,Adam,Adam,Adam,Adam,Adam
Learning Rate,.001,0.0001,0.0001,0.0001,0.0001,0.0001,0.0001,0.0001,5e-05
Steps Per Epoch,1,1,1,1,1,1,1,1,1
Batch Size,80000,80000,80000,80000,80000,80000,80000,80000,80000
Epochs,250,750,500,500,250,250,500,1000,250

Model: "functional_3"
_________________________________________________________________
Layer (type)                 Output Shape              Param #   
=================================================================
input_2 (InputLayer)         [(None, 3)]               0         
_________________________________________________________________
nonlinear_layer_1 (Dense)    (None, 32)                128       
_________________________________________________________________
nonlinear_layer_2 (Dense)    (None, 64)                2112      
_________________________________________________________________
nonlinear_layer_3 (Dense)    (None, 128)               8320      
_________________________________________________________________
nonlinear_layer_4 (Dense)    (None, 128)               16512     
_________________________________________________________________
nonlinear_layer_5 (Dense)    (None, 64)                8256      
_________________________________________________________________
nonlinear_layer_6 (Dense)    (None, 16)                1040      
_________________________________________________________________
evolved_state_layer (Dense)  (None, 3)                 51        
=================================================================
Total params: 36,419
Trainable params: 36,419
Non-trainable params: 0
_________________________________________________________________
