…
loss,… mse,… mae,… L2_loss,… val_loss,… val_mse,… val_mae,… val_L2_loss,… Loss,L2_loss,L2_loss,L2_loss
Optimizer,Adam,Adam,Adam
Learning Rate,.001,.001,0.0001
Steps Per Epoch,1,1,1
Batch Size,80000,80000,80000
Epochs,250,100,100

Model: "functional_3"
_________________________________________________________________
Layer (type)                 Output Shape              Param #   
=================================================================
input_2 (InputLayer)         [(None, 3)]               0         
_________________________________________________________________
nonlinear_layer_1 (Dense)    (None, 16)                64        
_________________________________________________________________
nonlinear_layer_2 (Dense)    (None, 32)                544       
_________________________________________________________________
nonlinear_layer_3 (Dense)    (None, 64)                2112      
_________________________________________________________________
nonlinear_layer_4 (Dense)    (None, 32)                2080      
_________________________________________________________________
nonlinear_layer_5 (Dense)    (None, 8)                 264       
_________________________________________________________________
evolved_state_layer (Dense)  (None, 3)                 27        
=================================================================
Total params: 5,091
Trainable params: 5,091
Non-trainable params: 0
_________________________________________________________________
