2021-07-01
loss,… mse,… mae,… val_loss,… val_mse,… val_mae,… Loss,L2_loss,L2_loss
Optimizer,Adam,Adam
Learning Rate,.001,0.0001
Steps Per Epoch,2,2
Batch Size,80000,80000
Epochs,250,750
dataset,50inits_dt0p1
Model: "functional_1"
_________________________________________________________________
Layer (type)                 Output Shape              Param #   
=================================================================
input_1 (InputLayer)         [(None, 3)]               0         
_________________________________________________________________
nonlinear_layer_1 (Dense)    (None, 64)                256       
_________________________________________________________________
nonlinear_layer_2 (Dense)    (None, 256)               16640     
_________________________________________________________________
nonlinear_layer_3 (Dense)    (None, 512)               131584    
_________________________________________________________________
nonlinear_layer_4 (Dense)    (None, 512)               262656    
_________________________________________________________________
nonlinear_layer_5 (Dense)    (None, 256)               131328    
_________________________________________________________________
nonlinear_layer_6 (Dense)    (None, 128)               32896     
_________________________________________________________________
evolved_state_layer (Dense)  (None, 3)                 387       
=================================================================
Total params: 575,747
Trainable params: 575,747
Non-trainable params: 0
_________________________________________________________________
