2021-07-01
loss,… mse,… mae,… val_loss,… val_mse,… val_mae,… Loss,L2_loss
Optimizer,Adam
Learning Rate,.001
Steps Per Epoch,1
Batch Size,80000
Epochs,500
dataset,big_evolve0p1.csv
Model: "functional_27"
_________________________________________________________________
Layer (type)                 Output Shape              Param #   
=================================================================
input_15 (InputLayer)        [(None, 3)]               0         
_________________________________________________________________
nonlinear_layer_1 (Dense)    (None, 128)               512       
_________________________________________________________________
nonlinear_layer_2 (Dense)    (None, 256)               33024     
_________________________________________________________________
nonlinear_layer_3 (Dense)    (None, 512)               131584    
_________________________________________________________________
nonlinear_layer_4 (Dense)    (None, 512)               262656    
_________________________________________________________________
nonlinear_layer_5 (Dense)    (None, 256)               131328    
_________________________________________________________________
nonlinear_layer_6 (Dense)    (None, 128)               32896     
_________________________________________________________________
evolved_state_layer (Dense)  (None, 3)                 387       
=================================================================
Total params: 592,387
Trainable params: 592,387
Non-trainable params: 0
_________________________________________________________________
