2021-07-01
loss,… mse,… mae,… val_loss,… val_mse,… val_mae,… Loss,L2_loss
Optimizer,Adam
Learning Rate,.001
Steps Per Epoch,1
Batch Size,80000
Epochs,3000
dataset,big_evolve.csv
Model: "functional_25"
_________________________________________________________________
Layer (type)                 Output Shape              Param #   
=================================================================
input_14 (InputLayer)        [(None, 3)]               0         
_________________________________________________________________
nonlinear_layer_1 (Dense)    (None, 64)                256       
_________________________________________________________________
nonlinear_layer_2 (Dense)    (None, 256)               16640     
_________________________________________________________________
nonlinear_layer_3 (Dense)    (None, 512)               131584    
_________________________________________________________________
nonlinear_layer_4 (Dense)    (None, 512)               262656    
_________________________________________________________________
nonlinear_layer_5 (Dense)    (None, 128)               65664     
_________________________________________________________________
nonlinear_layer_6 (Dense)    (None, 32)                4128      
_________________________________________________________________
evolved_state_layer (Dense)  (None, 3)                 99        
=================================================================
Total params: 481,027
Trainable params: 481,027
Non-trainable params: 0
_________________________________________________________________
