2021-06-28
loss,… mse,… mae,… L2_loss,… val_loss,… val_mse,… val_mae,… val_L2_loss,… Loss,L2_loss
Optimizer,Adam
Learning Rate,.001
Steps Per Epoch,1
Batch Size,80000
Epochs,1000

Model: "functional_3"
_________________________________________________________________
Layer (type)                 Output Shape              Param #   
=================================================================
input_2 (InputLayer)         [(None, 3)]               0         
_________________________________________________________________
nonlinear_layer_1 (Dense)    (None, 128)               512       
_________________________________________________________________
nonlinear_layer_2 (Dense)    (None, 256)               33024     
_________________________________________________________________
nonlinear_layer_3 (Dense)    (None, 512)               131584    
_________________________________________________________________
nonlinear_layer_4 (Dense)    (None, 512)               262656    
_________________________________________________________________
nonlinear_layer_5 (Dense)    (None, 128)               65664     
_________________________________________________________________
nonlinear_layer_6 (Dense)    (None, 64)                8256      
_________________________________________________________________
evolved_state_layer (Dense)  (None, 3)                 195       
=================================================================
Total params: 501,891
Trainable params: 501,891
Non-trainable params: 0
_________________________________________________________________
