…
loss,… mse,… mae,… val_loss,… val_mse,… val_mae,… Loss,L2_loss,L2_loss
Optimizer,Adam,Adam
Learning Rate,.001,0.0001
Steps Per Epoch,1,1
Batch Size,100000,100000
Epochs,500,500
dataset,2000inits_dt0p01_no_negative_inits
validation,200inits
Model: "functional_1"
_________________________________________________________________
Layer (type)                 Output Shape              Param #   
=================================================================
input_1 (InputLayer)         [(None, 3)]               0         
_________________________________________________________________
nonlinear_layer_1 (Dense)    (None, 64)                256       
_________________________________________________________________
nonlinear_layer_2 (Dense)    (None, 256)               16640     
_________________________________________________________________
nonlinear_layer_3 (Dense)    (None, 512)               131584    
_________________________________________________________________
nonlinear_layer_4 (Dense)    (None, 512)               262656    
_________________________________________________________________
nonlinear_layer_5 (Dense)    (None, 256)               131328    
_________________________________________________________________
nonlinear_layer_6 (Dense)    (None, 64)                16448     
_________________________________________________________________
evolved_state_layer (Dense)  (None, 3)                 195       
=================================================================
Total params: 559,107
Trainable params: 559,107
Non-trainable params: 0
_________________________________________________________________

Accidentally swapped training and test data, so was only trained on 200 initial conditions rather than the intended 1800