…
loss,… mse,… mae,… L2_loss,… val_loss,… val_mse,… val_mae,… val_L2_loss,… Loss,L2_loss,L2_loss,L2_loss
Optimizer,Adam,Adam,Adam
Learning Rate,.001,0.0001,0.0001
Steps Per Epoch,1,1,1
Batch Size,80000,80000,80000
Epochs,300,100,100

Model: "functional_7"
_________________________________________________________________
Layer (type)                 Output Shape              Param #   
=================================================================
input_4 (InputLayer)         [(None, 3)]               0         
_________________________________________________________________
nonlinear_layer_1 (Dense)    (None, 32)                128       
_________________________________________________________________
nonlinear_layer_2 (Dense)    (None, 64)                2112      
_________________________________________________________________
nonlinear_layer_3 (Dense)    (None, 128)               8320      
_________________________________________________________________
nonlinear_layer_4 (Dense)    (None, 64)                8256      
_________________________________________________________________
nonlinear_layer_5 (Dense)    (None, 16)                1040      
_________________________________________________________________
evolved_state_layer (Dense)  (None, 3)                 51        
=================================================================
Total params: 19,907
Trainable params: 19,907
Non-trainable params: 0
_________________________________________________________________
