2021-08-10
loss,… mse,… mae,… val_loss,… val_mse,… val_mae,… Loss,L2_loss,L2_loss
Optimizer,Adam,Adam
Learning Rate,.001,0.0001
Steps Per Epoch,450,450
Batch Size,100000,100000
Epochs,250,250
dataset,0t50_50000inits_dt0p05/ (First 50000 evolutions)
validation,5000inits

Model: "AntiKoopman"
_________________________________________________________________
Layer (type)                 Output Shape              Param #   
=================================================================
Phi (Model)                  (None, 3)                 527619    
_________________________________________________________________
model (Model)                (None, 3)                 559107    
_________________________________________________________________
Phi_inv (Model)              (None, 4)                 527620    
=================================================================
Total params: 1,614,346
Trainable params: 559,107
Non-trainable params: 1,055,239
_________________________________________________________________
Model: "Phi"
_________________________________________________________________
Layer (type)                 Output Shape              Param #   
=================================================================
input_3 (InputLayer)         [(None, 4)]               0         
_________________________________________________________________
encoding_layer_1 (Dense)     (None, 256)               1280      
_________________________________________________________________
encoding_layer_2 (Dense)     (None, 512)               131584    
_________________________________________________________________
encoding_layer_3 (Dense)     (None, 512)               262656    
_________________________________________________________________
encoding_layer_4 (Dense)     (None, 256)               131328    
_________________________________________________________________
bottleneck (Dense)           (None, 3)                 771       
=================================================================
Total params: 527,619
Trainable params: 0
Non-trainable params: 527,619
_________________________________________________________________
Model: "model"
_________________________________________________________________
Layer (type)                 Output Shape              Param #   
=================================================================
input_1 (InputLayer)         [(None, 3)]               0         
_________________________________________________________________
nonlinear_layer_1 (Dense)    (None, 64)                256       
_________________________________________________________________
nonlinear_layer_2 (Dense)    (None, 256)               16640     
_________________________________________________________________
nonlinear_layer_3 (Dense)    (None, 512)               131584    
_________________________________________________________________
nonlinear_layer_4 (Dense)    (None, 512)               262656    
_________________________________________________________________
nonlinear_layer_5 (Dense)    (None, 256)               131328    
_________________________________________________________________
nonlinear_layer_6 (Dense)    (None, 64)                16448     
_________________________________________________________________
evolved_state_layer (Dense)  (None, 3)                 195       
=================================================================
Total params: 559,107
Trainable params: 559,107
Non-trainable params: 0
_________________________________________________________________
Model: "Phi_inv"
_________________________________________________________________
Layer (type)                 Output Shape              Param #   
=================================================================
input_4 (InputLayer)         [(None, 3)]               0         
_________________________________________________________________
decoding_layer_1 (Dense)     (None, 256)               1024      
_________________________________________________________________
decoding_layer_2 (Dense)     (None, 512)               131584    
_________________________________________________________________
decoding_layer_3 (Dense)     (None, 512)               262656    
_________________________________________________________________
decoding_layer_4 (Dense)     (None, 256)               131328    
_________________________________________________________________
decoded_layer (Dense)        (None, 4)                 1028      
=================================================================
Total params: 527,620
Trainable params: 0
Non-trainable params: 527,620
_________________________________________________________________
