2021-06-25
loss,… mse,… mae,… Loss,autoencoding_loss
Optimizer,Adam
Learning Rate,.001
Steps Per Epoch,50
Batch Size,4096
Epochs,100

Model: "Autoencoder"
_________________________________________________________________
Layer (type)                 Output Shape              Param #   
=================================================================
Phi (Functional)             (None, 2)                 22962     
_________________________________________________________________
Phi_inv (Functional)         (None, 4)                 22964     
=================================================================
Total params: 45,926
Trainable params: 45,926
Non-trainable params: 0
_________________________________________________________________
Model: "Phi"
_________________________________________________________________
Layer (type)                 Output Shape              Param #   
=================================================================
input_1 (InputLayer)         [(None, 4)]               0         
_________________________________________________________________
encoding_layer_1 (Dense)     (None, 16)                80        
_________________________________________________________________
encoding_layer_2 (Dense)     (None, 128)               2176      
_________________________________________________________________
encoding_layer_3 (Dense)     (None, 128)               16512     
_________________________________________________________________
encoding_layer_4 (Dense)     (None, 32)                4128      
_________________________________________________________________
bottleneck (Dense)           (None, 2)                 66        
=================================================================
Total params: 22,962
Trainable params: 22,962
Non-trainable params: 0
_________________________________________________________________
Model: "Phi_inv"
_________________________________________________________________
Layer (type)                 Output Shape              Param #   
=================================================================
input_2 (InputLayer)         [(None, 2)]               0         
_________________________________________________________________
decoding_layer_1 (Dense)     (None, 32)                96        
_________________________________________________________________
decoding_layer_2 (Dense)     (None, 128)               4224      
_________________________________________________________________
decoding_layer_3 (Dense)     (None, 128)               16512     
_________________________________________________________________
decoding_layer_4 (Dense)     (None, 16)                2064      
_________________________________________________________________
decoded_layer (Dense)        (None, 4)                 68        
=================================================================
Total params: 22,964
Trainable params: 22,964
Non-trainable params: 0
_________________________________________________________________
