2021-06-25
loss,… mse,… mae,… Loss,autoencoding_loss
Optimizer,Adam
Learning Rate,.001
Steps Per Epoch,50
Batch Size,4096
Epochs,100

Model: "Autoencoder"
_________________________________________________________________
Layer (type)                 Output Shape              Param #   
=================================================================
Phi (Functional)             (None, 2)                 8578      
_________________________________________________________________
Phi_inv (Functional)         (None, 4)                 8580      
=================================================================
Total params: 17,158
Trainable params: 17,158
Non-trainable params: 0
_________________________________________________________________
Model: "Phi"
_________________________________________________________________
Layer (type)                 Output Shape              Param #   
=================================================================
input_1 (InputLayer)         [(None, 4)]               0         
_________________________________________________________________
encoding_layer_1 (Dense)     (None, 16)                80        
_________________________________________________________________
encoding_layer_2 (Dense)     (None, 256)               4352      
_________________________________________________________________
encoding_layer_3 (Dense)     (None, 16)                4112      
_________________________________________________________________
bottleneck (Dense)           (None, 2)                 34        
=================================================================
Total params: 8,578
Trainable params: 8,578
Non-trainable params: 0
_________________________________________________________________
Model: "Phi_inv"
_________________________________________________________________
Layer (type)                 Output Shape              Param #   
=================================================================
input_2 (InputLayer)         [(None, 2)]               0         
_________________________________________________________________
decoding_layer_1 (Dense)     (None, 16)                48        
_________________________________________________________________
decoding_layer_2 (Dense)     (None, 256)               4352      
_________________________________________________________________
decoding_layer_3 (Dense)     (None, 16)                4112      
_________________________________________________________________
decoded_layer (Dense)        (None, 4)                 68        
=================================================================
Total params: 8,580
Trainable params: 8,580
Non-trainable params: 0
_________________________________________________________________
