2021-06-25
loss,… mse,… mae,… Loss,autoencoding_loss
Optimizer,Adam
Learning Rate,.001
Steps Per Epoch,50
Batch Size,4096
Epochs,100

Model: "Autoencoder"
_________________________________________________________________
Layer (type)                 Output Shape              Param #   
=================================================================
Phi (Functional)             (None, 2)                 6402      
_________________________________________________________________
Phi_inv (Functional)         (None, 4)                 6404      
=================================================================
Total params: 12,806
Trainable params: 12,806
Non-trainable params: 0
_________________________________________________________________
Model: "Phi"
_________________________________________________________________
Layer (type)                 Output Shape              Param #   
=================================================================
input_1 (InputLayer)         [(None, 4)]               0         
_________________________________________________________________
encoding_layer_1 (Dense)     (None, 16)                80        
_________________________________________________________________
encoding_layer_2 (Dense)     (None, 64)                1088      
_________________________________________________________________
encoding_layer_3 (Dense)     (None, 64)                4160      
_________________________________________________________________
encoding_layer_4 (Dense)     (None, 16)                1040      
_________________________________________________________________
bottleneck (Dense)           (None, 2)                 34        
=================================================================
Total params: 6,402
Trainable params: 6,402
Non-trainable params: 0
_________________________________________________________________
Model: "Phi_inv"
_________________________________________________________________
Layer (type)                 Output Shape              Param #   
=================================================================
input_2 (InputLayer)         [(None, 2)]               0         
_________________________________________________________________
decoding_layer_1 (Dense)     (None, 16)                48        
_________________________________________________________________
decoding_layer_2 (Dense)     (None, 64)                1088      
_________________________________________________________________
decoding_layer_3 (Dense)     (None, 64)                4160      
_________________________________________________________________
decoding_layer_4 (Dense)     (None, 16)                1040      
_________________________________________________________________
decoded_layer (Dense)        (None, 4)                 68        
=================================================================
Total params: 6,404
Trainable params: 6,404
Non-trainable params: 0
_________________________________________________________________
