2021-06-25
loss,… mse,… mae,… Loss,autoencoding_loss
Optimizer,Adam
Learning Rate,.001
Steps Per Epoch,50
Batch Size,4096
Epochs,100

Model: "Autoencoder"
_________________________________________________________________
Layer (type)                 Output Shape              Param #   
=================================================================
Phi (Functional)             (None, 2)                 6482      
_________________________________________________________________
Phi_inv (Functional)         (None, 4)                 6484      
=================================================================
Total params: 12,966
Trainable params: 12,966
Non-trainable params: 0
_________________________________________________________________
Model: "Phi"
_________________________________________________________________
Layer (type)                 Output Shape              Param #   
=================================================================
input_1 (InputLayer)         [(None, 4)]               0         
_________________________________________________________________
encoding_layer_1 (Dense)     (None, 32)                160       
_________________________________________________________________
encoding_layer_2 (Dense)     (None, 128)               4224      
_________________________________________________________________
encoding_layer_3 (Dense)     (None, 16)                2064      
_________________________________________________________________
bottleneck (Dense)           (None, 2)                 34        
=================================================================
Total params: 6,482
Trainable params: 6,482
Non-trainable params: 0
_________________________________________________________________
Model: "Phi_inv"
_________________________________________________________________
Layer (type)                 Output Shape              Param #   
=================================================================
input_2 (InputLayer)         [(None, 2)]               0         
_________________________________________________________________
decoding_layer_1 (Dense)     (None, 16)                48        
_________________________________________________________________
decoding_layer_2 (Dense)     (None, 128)               2176      
_________________________________________________________________
decoding_layer_3 (Dense)     (None, 32)                4128      
_________________________________________________________________
decoded_layer (Dense)        (None, 4)                 132       
=================================================================
Total params: 6,484
Trainable params: 6,484
Non-trainable params: 0
_________________________________________________________________
