2021-07-04
loss,… mse,… mae,… val_loss,… val_mse,… val_mae,… Loss,L2_loss
Optimizer,Adam
Learning Rate,.001
Steps Per Epoch,50
Batch Size,4096
Epochs,250
Dataset,generate_autoencoder_test/val
Model: "Autoencoder"
_________________________________________________________________
Layer (type)                 Output Shape              Param #   
=================================================================
Phi (Functional)             (None, 3)                 1315075   
_________________________________________________________________
Phi_inv (Functional)         (None, 4)                 1315076   
=================================================================
Total params: 2,630,151
Trainable params: 2,630,151
Non-trainable params: 0
_________________________________________________________________
Model: "Phi"
_________________________________________________________________
Layer (type)                 Output Shape              Param #   
=================================================================
input_1 (InputLayer)         [(None, 4)]               0         
_________________________________________________________________
encoding_layer_1 (Dense)     (None, 256)               1280      
_________________________________________________________________
encoding_layer_2 (Dense)     (None, 512)               131584    
_________________________________________________________________
encoding_layer_3 (Dense)     (None, 1024)              525312    
_________________________________________________________________
encoding_layer_4 (Dense)     (None, 512)               524800    
_________________________________________________________________
encoding_layer_5 (Dense)     (None, 256)               131328    
_________________________________________________________________
bottleneck (Dense)           (None, 3)                 771       
=================================================================
Total params: 1,315,075
Trainable params: 1,315,075
Non-trainable params: 0
_________________________________________________________________
Model: "Phi_inv"
_________________________________________________________________
Layer (type)                 Output Shape              Param #   
=================================================================
input_2 (InputLayer)         [(None, 3)]               0         
_________________________________________________________________
decoding_layer_1 (Dense)     (None, 256)               1024      
_________________________________________________________________
decoding_layer_2 (Dense)     (None, 512)               131584    
_________________________________________________________________
decoding_layer_3 (Dense)     (None, 1024)              525312    
_________________________________________________________________
decoding_layer_4 (Dense)     (None, 512)               524800    
_________________________________________________________________
decoding_layer_5 (Dense)     (None, 256)               131328    
_________________________________________________________________
decoded_layer (Dense)        (None, 4)                 1028      
=================================================================
Total params: 1,315,076
Trainable params: 1,315,076
Non-trainable params: 0
_________________________________________________________________
