2021-06-23
loss,… mse,… mae,… val_loss,… val_mse,… val_mae,… Loss,L2_loss,L2_loss
Optimizer,Adam,Adam
Learning Rate,.001,0.0001
Steps Per Epoch,50,50
Batch Size,4096,4096
Epochs,100,100

Model: "Autoencoder"
_________________________________________________________________
Layer (type)                 Output Shape              Param #   
=================================================================
Phi (Functional)             (None, 3)                 1419      
_________________________________________________________________
Phi_inv (Functional)         (None, 4)                 1420      
=================================================================
Total params: 2,839
Trainable params: 2,839
Non-trainable params: 0
_________________________________________________________________
Model: "Phi"
_________________________________________________________________
Layer (type)                 Output Shape              Param #   
=================================================================
input_15 (InputLayer)        [(None, 4)]               0         
_________________________________________________________________
encoding_layer_1 (Dense)     (None, 8)                 40        
_________________________________________________________________
encoding_layer_2 (Dense)     (None, 16)                144       
_________________________________________________________________
encoding_layer_3 (Dense)     (None, 32)                544       
_________________________________________________________________
encoding_layer_4 (Dense)     (None, 16)                528       
_________________________________________________________________
encoding_layer_5 (Dense)     (None, 8)                 136       
_________________________________________________________________
bottleneck (Dense)           (None, 3)                 27        
=================================================================
Total params: 1,419
Trainable params: 1,419
Non-trainable params: 0
_________________________________________________________________
Model: "Phi_inv"
_________________________________________________________________
Layer (type)                 Output Shape              Param #   
=================================================================
input_16 (InputLayer)        [(None, 3)]               0         
_________________________________________________________________
decoding_layer_1 (Dense)     (None, 8)                 32        
_________________________________________________________________
decoding_layer_2 (Dense)     (None, 16)                144       
_________________________________________________________________
decoding_layer_3 (Dense)     (None, 32)                544       
_________________________________________________________________
decoding_layer_4 (Dense)     (None, 16)                528       
_________________________________________________________________
decoding_layer_5 (Dense)     (None, 8)                 136       
_________________________________________________________________
decoded_layer (Dense)        (None, 4)                 36        
=================================================================
Total params: 1,420
Trainable params: 1,420
Non-trainable params: 0
_________________________________________________________________
