2021-06-23
loss,… mse,… mae,… val_loss,… val_mse,… val_mae,… Loss,L2_loss,L2_loss,L2_loss
Optimizer,Adam,Adam,Adam
Learning Rate,.001,0.0001,1e-05
Steps Per Epoch,50,50,50
Batch Size,4096,4096,4096
Epochs,100,100,100

Model: "Autoencoder"
_________________________________________________________________
Layer (type)                 Output Shape              Param #   
=================================================================
Phi (Functional)             (None, 3)                 18835     
_________________________________________________________________
Phi_inv (Functional)         (None, 4)                 18836     
=================================================================
Total params: 37,671
Trainable params: 37,671
Non-trainable params: 0
_________________________________________________________________
Model: "Phi"
_________________________________________________________________
Layer (type)                 Output Shape              Param #   
=================================================================
input_19 (InputLayer)        [(None, 4)]               0         
_________________________________________________________________
encoding_layer_1 (Dense)     (None, 16)                80        
_________________________________________________________________
encoding_layer_2 (Dense)     (None, 64)                1088      
_________________________________________________________________
encoding_layer_3 (Dense)     (None, 128)               8320      
_________________________________________________________________
encoding_layer_4 (Dense)     (None, 64)                8256      
_________________________________________________________________
encoding_layer_5 (Dense)     (None, 16)                1040      
_________________________________________________________________
bottleneck (Dense)           (None, 3)                 51        
=================================================================
Total params: 18,835
Trainable params: 18,835
Non-trainable params: 0
_________________________________________________________________
Model: "Phi_inv"
_________________________________________________________________
Layer (type)                 Output Shape              Param #   
=================================================================
input_20 (InputLayer)        [(None, 3)]               0         
_________________________________________________________________
decoding_layer_1 (Dense)     (None, 16)                64        
_________________________________________________________________
decoding_layer_2 (Dense)     (None, 64)                1088      
_________________________________________________________________
decoding_layer_3 (Dense)     (None, 128)               8320      
_________________________________________________________________
decoding_layer_4 (Dense)     (None, 64)                8256      
_________________________________________________________________
decoding_layer_5 (Dense)     (None, 16)                1040      
_________________________________________________________________
decoded_layer (Dense)        (None, 4)                 68        
=================================================================
Total params: 18,836
Trainable params: 18,836
Non-trainable params: 0
_________________________________________________________________
