2021-06-29
loss,… mse,… mae,… val_loss,… val_mse,… val_mae,… Loss,L2_loss,L2_loss,L2_loss,L2_loss
Optimizer,Adam,Adam,Adam,Adam
Learning Rate,.001,0.0001,0.0001,0.0001
Steps Per Epoch,1,1,1,1
Batch Size,80000,80000,80000,80000
Epochs,200,800,500,500

Model: "Autoencoder"
_________________________________________________________________
Layer (type)                 Output Shape              Param #   
=================================================================
Phi (Functional)             (None, 3)                 35555     
_________________________________________________________________
Phi_inv (Functional)         (None, 4)                 35556     
=================================================================
Total params: 71,111
Trainable params: 71,111
Non-trainable params: 0
_________________________________________________________________
Model: "Phi"
_________________________________________________________________
Layer (type)                 Output Shape              Param #   
=================================================================
input_5 (InputLayer)         [(None, 4)]               0         
_________________________________________________________________
encoding_layer_1 (Dense)     (None, 32)                160       
_________________________________________________________________
encoding_layer_2 (Dense)     (None, 64)                2112      
_________________________________________________________________
encoding_layer_3 (Dense)     (None, 256)               16640     
_________________________________________________________________
encoding_layer_5 (Dense)     (None, 64)                16448     
_________________________________________________________________
bottleneck (Dense)           (None, 3)                 195       
=================================================================
Total params: 35,555
Trainable params: 35,555
Non-trainable params: 0
_________________________________________________________________
Model: "Phi_inv"
_________________________________________________________________
Layer (type)                 Output Shape              Param #   
=================================================================
input_6 (InputLayer)         [(None, 3)]               0         
_________________________________________________________________
decoding_layer_1 (Dense)     (None, 64)                256       
_________________________________________________________________
decoding_layer_2 (Dense)     (None, 256)               16640     
_________________________________________________________________
decoding_layer_3 (Dense)     (None, 64)                16448     
_________________________________________________________________
decoding_layer_5 (Dense)     (None, 32)                2080      
_________________________________________________________________
decoded_layer (Dense)        (None, 4)                 132       
=================================================================
Total params: 35,556
Trainable params: 35,556
Non-trainable params: 0
_________________________________________________________________
