2021-06-13
loss,… Loss:autoencoding_loss
Optimizer:Adam
Learning Rate:.001
Steps Per Epoch:50
States Per Step:512

Model: "Phi"
_________________________________________________________________
Layer (type)                 Output Shape              Param #   
=================================================================
input_3 (InputLayer)         [(None, 4)]               0         
_________________________________________________________________
encoding_layer_1 (Dense)     (None, 8)                 40        
_________________________________________________________________
encoding_layer_2 (Dense)     (None, 16)                144       
_________________________________________________________________
encoding_layer_3 (Dense)     (None, 32)                544       
_________________________________________________________________
encoding_layer_4 (Dense)     (None, 16)                528       
_________________________________________________________________
encoding_layer_5 (Dense)     (None, 8)                 136       
_________________________________________________________________
bottleneck (Dense)           (None, 2)                 18        
=================================================================
Total params: 1,410
Trainable params: 1,410
Non-trainable params: 0
_________________________________________________________________
Model: "Phi_inv"
_________________________________________________________________
Layer (type)                 Output Shape              Param #   
=================================================================
input_4 (InputLayer)         [(None, 2)]               0         
_________________________________________________________________
decoding_layer_1 (Dense)     (None, 8)                 24        
_________________________________________________________________
decoding_layer_2 (Dense)     (None, 16)                144       
_________________________________________________________________
decoding_layer_3 (Dense)     (None, 32)                544       
_________________________________________________________________
decoding_layer_4 (Dense)     (None, 16)                528       
_________________________________________________________________
decoding_layer_5 (Dense)     (None, 8)                 136       
_________________________________________________________________
decoded_layer (Dense)        (None, 4)                 36        
=================================================================
Total params: 1,412
Trainable params: 1,412
Non-trainable params: 0
_________________________________________________________________
Model: "Autoencoder"
_________________________________________________________________
Layer (type)                 Output Shape              Param #   
=================================================================
Phi (Functional)             (None, 2)                 1410      
_________________________________________________________________
Phi_inv (Functional)         (None, 4)                 1412      
=================================================================
Total params: 2,822
Trainable params: 2,822
Non-trainable params: 0
_________________________________________________________________
