2021-06-20
loss,… mse,… mae,… Loss,autoencoding_loss
Optimizer,Adam
Learning Rate,.001
Steps Per Epoch,50
Batch Size,4096
Epochs,100

Model: "Autoencoder"
_________________________________________________________________
Layer (type)                 Output Shape              Param #   
=================================================================
Phi (Functional)             (None, 2)                 18818     
_________________________________________________________________
Phi_inv (Functional)         (None, 4)                 18820     
=================================================================
Total params: 37,638
Trainable params: 37,638
Non-trainable params: 0
_________________________________________________________________
Model: "Phi"
_________________________________________________________________
Layer (type)                 Output Shape              Param #   
=================================================================
input_7 (InputLayer)         [(None, 4)]               0         
_________________________________________________________________
encoding_layer_1 (Dense)     (None, 16)                80        
_________________________________________________________________
encoding_layer_2 (Dense)     (None, 64)                1088      
_________________________________________________________________
encoding_layer_3 (Dense)     (None, 128)               8320      
_________________________________________________________________
encoding_layer_4 (Dense)     (None, 64)                8256      
_________________________________________________________________
encoding_layer_5 (Dense)     (None, 16)                1040      
_________________________________________________________________
bottleneck (Dense)           (None, 2)                 34        
=================================================================
Total params: 18,818
Trainable params: 18,818
Non-trainable params: 0
_________________________________________________________________
Model: "Phi_inv"
_________________________________________________________________
Layer (type)                 Output Shape              Param #   
=================================================================
input_8 (InputLayer)         [(None, 2)]               0         
_________________________________________________________________
decoding_layer_1 (Dense)     (None, 16)                48        
_________________________________________________________________
decoding_layer_2 (Dense)     (None, 64)                1088      
_________________________________________________________________
decoding_layer_3 (Dense)     (None, 128)               8320      
_________________________________________________________________
decoding_layer_4 (Dense)     (None, 64)                8256      
_________________________________________________________________
decoding_layer_5 (Dense)     (None, 16)                1040      
_________________________________________________________________
decoded_layer (Dense)        (None, 4)                 68        
=================================================================
Total params: 18,820
Trainable params: 18,820
Non-trainable params: 0
_________________________________________________________________
