2021-07-04
loss,… mse,… mae,… val_loss,… val_mse,… val_mae,… Loss,L2_loss,L2_loss,L2_loss
Optimizer,Adam,Adam,Adam
Learning Rate,.001,0.0001,1e-05
Steps Per Epoch,50,50,50
Batch Size,4096,4096,4096
Epochs,250,500,250
Dataset,generate_autoencoder_test/val
Model: "Autoencoder"
_________________________________________________________________
Layer (type)                 Output Shape              Param #   
=================================================================
Phi (Functional)             (None, 3)                 527619    
_________________________________________________________________
Phi_inv (Functional)         (None, 4)                 527620    
=================================================================
Total params: 1,055,239
Trainable params: 1,055,239
Non-trainable params: 0
_________________________________________________________________
Model: "Phi"
_________________________________________________________________
Layer (type)                 Output Shape              Param #   
=================================================================
input_3 (InputLayer)         [(None, 4)]               0         
_________________________________________________________________
encoding_layer_1 (Dense)     (None, 256)               1280      
_________________________________________________________________
encoding_layer_2 (Dense)     (None, 512)               131584    
_________________________________________________________________
encoding_layer_3 (Dense)     (None, 512)               262656    
_________________________________________________________________
encoding_layer_4 (Dense)     (None, 256)               131328    
_________________________________________________________________
bottleneck (Dense)           (None, 3)                 771       
=================================================================
Total params: 527,619
Trainable params: 527,619
Non-trainable params: 0
_________________________________________________________________
Model: "Phi_inv"
_________________________________________________________________
Layer (type)                 Output Shape              Param #   
=================================================================
input_4 (InputLayer)         [(None, 3)]               0         
_________________________________________________________________
decoding_layer_1 (Dense)     (None, 256)               1024      
_________________________________________________________________
decoding_layer_2 (Dense)     (None, 512)               131584    
_________________________________________________________________
decoding_layer_3 (Dense)     (None, 512)               262656    
_________________________________________________________________
decoding_layer_4 (Dense)     (None, 256)               131328    
_________________________________________________________________
decoded_layer (Dense)        (None, 4)                 1028      
=================================================================
Total params: 527,620
Trainable params: 527,620
Non-trainable params: 0
_________________________________________________________________
