2021-06-26
loss,… mse,… mae,… Loss,autoencoding_loss
Optimizer,Adam
Learning Rate,.001
Steps Per Epoch,50
Batch Size,4096
Epochs,100

Model: "Autoencoder"
_________________________________________________________________
Layer (type)                 Output Shape              Param #   
=================================================================
Phi (Functional)             (None, 3)                 275571    
_________________________________________________________________
Phi_inv (Functional)         (None, 4)                 275572    
=================================================================
Total params: 551,143
Trainable params: 551,143
Non-trainable params: 0
_________________________________________________________________
Model: "Phi"
_________________________________________________________________
Layer (type)                 Output Shape              Param #   
=================================================================
input_1 (InputLayer)         [(None, 4)]               0         
_________________________________________________________________
encoding_layer_1 (Dense)     (None, 16)                80        
_________________________________________________________________
encoding_layer_2 (Dense)     (None, 512)               8704      
_________________________________________________________________
encoding_layer_3 (Dense)     (None, 512)               262656    
_________________________________________________________________
encoding_layer_4 (Dense)     (None, 8)                 4104      
_________________________________________________________________
bottleneck (Dense)           (None, 3)                 27        
=================================================================
Total params: 275,571
Trainable params: 275,571
Non-trainable params: 0
_________________________________________________________________
Model: "Phi_inv"
_________________________________________________________________
Layer (type)                 Output Shape              Param #   
=================================================================
input_2 (InputLayer)         [(None, 3)]               0         
_________________________________________________________________
decoding_layer_1 (Dense)     (None, 8)                 32        
_________________________________________________________________
decoding_layer_2 (Dense)     (None, 512)               4608      
_________________________________________________________________
decoding_layer_3 (Dense)     (None, 512)               262656    
_________________________________________________________________
decoding_layer_4 (Dense)     (None, 16)                8208      
_________________________________________________________________
decoded_layer (Dense)        (None, 4)                 68        
=================================================================
Total params: 275,572
Trainable params: 275,572
Non-trainable params: 0
_________________________________________________________________
