2021-06-26
loss,… mse,… mae,… Loss,autoencoding_loss
Optimizer,Adam
Learning Rate,.001
Steps Per Epoch,50
Batch Size,4096
Epochs,100

Model: "Autoencoder"
_________________________________________________________________
Layer (type)                 Output Shape              Param #   
=================================================================
Phi (Functional)             (None, 3)                 45731     
_________________________________________________________________
Phi_inv (Functional)         (None, 4)                 45732     
=================================================================
Total params: 91,463
Trainable params: 91,463
Non-trainable params: 0
_________________________________________________________________
Model: "Phi"
_________________________________________________________________
Layer (type)                 Output Shape              Param #   
=================================================================
input_1 (InputLayer)         [(None, 4)]               0         
_________________________________________________________________
encoding_layer_1 (Dense)     (None, 32)                160       
_________________________________________________________________
encoding_layer_2 (Dense)     (None, 128)               4224      
_________________________________________________________________
encoding_layer_3 (Dense)     (None, 256)               33024     
_________________________________________________________________
encoding_layer_4 (Dense)     (None, 32)                8224      
_________________________________________________________________
bottleneck (Dense)           (None, 3)                 99        
=================================================================
Total params: 45,731
Trainable params: 45,731
Non-trainable params: 0
_________________________________________________________________
Model: "Phi_inv"
_________________________________________________________________
Layer (type)                 Output Shape              Param #   
=================================================================
input_2 (InputLayer)         [(None, 3)]               0         
_________________________________________________________________
decoding_layer_1 (Dense)     (None, 32)                128       
_________________________________________________________________
decoding_layer_2 (Dense)     (None, 256)               8448      
_________________________________________________________________
decoding_layer_3 (Dense)     (None, 128)               32896     
_________________________________________________________________
decoding_layer_4 (Dense)     (None, 32)                4128      
_________________________________________________________________
decoded_layer (Dense)        (None, 4)                 132       
=================================================================
Total params: 45,732
Trainable params: 45,732
Non-trainable params: 0
_________________________________________________________________
