2021-06-26
loss,… mse,… mae,… Loss,autoencoding_loss
Optimizer,Adam
Learning Rate,.001
Steps Per Epoch,50
Batch Size,4096
Epochs,100

Model: "Autoencoder"
_________________________________________________________________
Layer (type)                 Output Shape              Param #   
=================================================================
Phi (Functional)             (None, 3)                 7523      
_________________________________________________________________
Phi_inv (Functional)         (None, 4)                 7524      
=================================================================
Total params: 15,047
Trainable params: 15,047
Non-trainable params: 0
_________________________________________________________________
Model: "Phi"
_________________________________________________________________
Layer (type)                 Output Shape              Param #   
=================================================================
input_1 (InputLayer)         [(None, 4)]               0         
_________________________________________________________________
encoding_layer_1 (Dense)     (None, 32)                160       
_________________________________________________________________
encoding_layer_2 (Dense)     (None, 64)                2112      
_________________________________________________________________
encoding_layer_3 (Dense)     (None, 64)                4160      
_________________________________________________________________
encoding_layer_4 (Dense)     (None, 16)                1040      
_________________________________________________________________
bottleneck (Dense)           (None, 3)                 51        
=================================================================
Total params: 7,523
Trainable params: 7,523
Non-trainable params: 0
_________________________________________________________________
Model: "Phi_inv"
_________________________________________________________________
Layer (type)                 Output Shape              Param #   
=================================================================
input_2 (InputLayer)         [(None, 3)]               0         
_________________________________________________________________
decoding_layer_1 (Dense)     (None, 16)                64        
_________________________________________________________________
decoding_layer_2 (Dense)     (None, 64)                1088      
_________________________________________________________________
decoding_layer_3 (Dense)     (None, 64)                4160      
_________________________________________________________________
decoding_layer_4 (Dense)     (None, 32)                2080      
_________________________________________________________________
decoded_layer (Dense)        (None, 4)                 132       
=================================================================
Total params: 7,524
Trainable params: 7,524
Non-trainable params: 0
_________________________________________________________________
