2021-06-26
loss,… mse,… mae,… Loss,autoencoding_loss
Optimizer,Adam
Learning Rate,.001
Steps Per Epoch,50
Batch Size,4096
Epochs,100

Model: "Autoencoder"
_________________________________________________________________
Layer (type)                 Output Shape              Param #   
=================================================================
Phi (Functional)             (None, 3)                 25283     
_________________________________________________________________
Phi_inv (Functional)         (None, 4)                 25284     
=================================================================
Total params: 50,567
Trainable params: 50,567
Non-trainable params: 0
_________________________________________________________________
Model: "Phi"
_________________________________________________________________
Layer (type)                 Output Shape              Param #   
=================================================================
input_1 (InputLayer)         [(None, 4)]               0         
_________________________________________________________________
encoding_layer_1 (Dense)     (None, 64)                320       
_________________________________________________________________
encoding_layer_2 (Dense)     (None, 256)               16640     
_________________________________________________________________
encoding_layer_3 (Dense)     (None, 32)                8224      
_________________________________________________________________
bottleneck (Dense)           (None, 3)                 99        
=================================================================
Total params: 25,283
Trainable params: 25,283
Non-trainable params: 0
_________________________________________________________________
Model: "Phi_inv"
_________________________________________________________________
Layer (type)                 Output Shape              Param #   
=================================================================
input_2 (InputLayer)         [(None, 3)]               0         
_________________________________________________________________
decoding_layer_1 (Dense)     (None, 32)                128       
_________________________________________________________________
decoding_layer_2 (Dense)     (None, 256)               8448      
_________________________________________________________________
decoding_layer_3 (Dense)     (None, 64)                16448     
_________________________________________________________________
decoded_layer (Dense)        (None, 4)                 260       
=================================================================
Total params: 25,284
Trainable params: 25,284
Non-trainable params: 0
_________________________________________________________________
