2021-06-26
loss,… mse,… mae,… Loss,autoencoding_loss
Optimizer,Adam
Learning Rate,.001
Steps Per Epoch,50
Batch Size,4096
Epochs,100

Model: "Autoencoder"
_________________________________________________________________
Layer (type)                 Output Shape              Param #   
=================================================================
Phi (Functional)             (None, 3)                 35627     
_________________________________________________________________
Phi_inv (Functional)         (None, 4)                 35628     
=================================================================
Total params: 71,255
Trainable params: 71,255
Non-trainable params: 0
_________________________________________________________________
Model: "Phi"
_________________________________________________________________
Layer (type)                 Output Shape              Param #   
=================================================================
input_1 (InputLayer)         [(None, 4)]               0         
_________________________________________________________________
encoding_layer_1 (Dense)     (None, 8)                 40        
_________________________________________________________________
encoding_layer_2 (Dense)     (None, 256)               2304      
_________________________________________________________________
encoding_layer_3 (Dense)     (None, 128)               32896     
_________________________________________________________________
bottleneck (Dense)           (None, 3)                 387       
=================================================================
Total params: 35,627
Trainable params: 35,627
Non-trainable params: 0
_________________________________________________________________
Model: "Phi_inv"
_________________________________________________________________
Layer (type)                 Output Shape              Param #   
=================================================================
input_2 (InputLayer)         [(None, 3)]               0         
_________________________________________________________________
decoding_layer_1 (Dense)     (None, 128)               512       
_________________________________________________________________
decoding_layer_2 (Dense)     (None, 256)               33024     
_________________________________________________________________
decoding_layer_3 (Dense)     (None, 8)                 2056      
_________________________________________________________________
decoded_layer (Dense)        (None, 4)                 36        
=================================================================
Total params: 35,628
Trainable params: 35,628
Non-trainable params: 0
_________________________________________________________________
