2021-06-26
loss,… mse,… mae,… Loss,autoencoding_loss
Optimizer,Adam
Learning Rate,.001
Steps Per Epoch,50
Batch Size,4096
Epochs,100

Model: "Autoencoder"
_________________________________________________________________
Layer (type)                 Output Shape              Param #   
=================================================================
Phi (Functional)             (None, 3)                 136995    
_________________________________________________________________
Phi_inv (Functional)         (None, 4)                 136996    
=================================================================
Total params: 273,991
Trainable params: 273,991
Non-trainable params: 0
_________________________________________________________________
Model: "Phi"
_________________________________________________________________
Layer (type)                 Output Shape              Param #   
=================================================================
input_1 (InputLayer)         [(None, 4)]               0         
_________________________________________________________________
encoding_layer_1 (Dense)     (None, 256)               1280      
_________________________________________________________________
encoding_layer_2 (Dense)     (None, 512)               131584    
_________________________________________________________________
encoding_layer_3 (Dense)     (None, 8)                 4104      
_________________________________________________________________
bottleneck (Dense)           (None, 3)                 27        
=================================================================
Total params: 136,995
Trainable params: 136,995
Non-trainable params: 0
_________________________________________________________________
Model: "Phi_inv"
_________________________________________________________________
Layer (type)                 Output Shape              Param #   
=================================================================
input_2 (InputLayer)         [(None, 3)]               0         
_________________________________________________________________
decoding_layer_1 (Dense)     (None, 8)                 32        
_________________________________________________________________
decoding_layer_2 (Dense)     (None, 512)               4608      
_________________________________________________________________
decoding_layer_3 (Dense)     (None, 256)               131328    
_________________________________________________________________
decoded_layer (Dense)        (None, 4)                 1028      
=================================================================
Total params: 136,996
Trainable params: 136,996
Non-trainable params: 0
_________________________________________________________________
