2021-06-26
loss,… mse,… mae,… Loss,autoencoding_loss
Optimizer,Adam
Learning Rate,.001
Steps Per Epoch,50
Batch Size,4096
Epochs,100

Model: "Autoencoder"
_________________________________________________________________
Layer (type)                 Output Shape              Param #   
=================================================================
Phi (Functional)             (None, 3)                 83203     
_________________________________________________________________
Phi_inv (Functional)         (None, 4)                 83204     
=================================================================
Total params: 166,407
Trainable params: 166,407
Non-trainable params: 0
_________________________________________________________________
Model: "Phi"
_________________________________________________________________
Layer (type)                 Output Shape              Param #   
=================================================================
input_1 (InputLayer)         [(None, 4)]               0         
_________________________________________________________________
encoding_layer_1 (Dense)     (None, 128)               640       
_________________________________________________________________
encoding_layer_2 (Dense)     (None, 512)               66048     
_________________________________________________________________
encoding_layer_3 (Dense)     (None, 32)                16416     
_________________________________________________________________
bottleneck (Dense)           (None, 3)                 99        
=================================================================
Total params: 83,203
Trainable params: 83,203
Non-trainable params: 0
_________________________________________________________________
Model: "Phi_inv"
_________________________________________________________________
Layer (type)                 Output Shape              Param #   
=================================================================
input_2 (InputLayer)         [(None, 3)]               0         
_________________________________________________________________
decoding_layer_1 (Dense)     (None, 32)                128       
_________________________________________________________________
decoding_layer_2 (Dense)     (None, 512)               16896     
_________________________________________________________________
decoding_layer_3 (Dense)     (None, 128)               65664     
_________________________________________________________________
decoded_layer (Dense)        (None, 4)                 516       
=================================================================
Total params: 83,204
Trainable params: 83,204
Non-trainable params: 0
_________________________________________________________________
