2021-06-26
loss,… mse,… mae,… Loss,autoencoding_loss
Optimizer,Adam
Learning Rate,.001
Steps Per Epoch,50
Batch Size,4096
Epochs,100

Model: "Autoencoder"
_________________________________________________________________
Layer (type)                 Output Shape              Param #   
=================================================================
Phi (Functional)             (None, 3)                 407203    
_________________________________________________________________
Phi_inv (Functional)         (None, 4)                 407204    
=================================================================
Total params: 814,407
Trainable params: 814,407
Non-trainable params: 0
_________________________________________________________________
Model: "Phi"
_________________________________________________________________
Layer (type)                 Output Shape              Param #   
=================================================================
input_1 (InputLayer)         [(None, 4)]               0         
_________________________________________________________________
encoding_layer_1 (Dense)     (None, 32)                160       
_________________________________________________________________
encoding_layer_2 (Dense)     (None, 128)               4224      
_________________________________________________________________
encoding_layer_3 (Dense)     (None, 512)               66048     
_________________________________________________________________
encoding_layer_4 (Dense)     (None, 512)               262656    
_________________________________________________________________
encoding_layer_5 (Dense)     (None, 128)               65664     
_________________________________________________________________
encoding_layer_6 (Dense)     (None, 64)                8256      
_________________________________________________________________
bottleneck (Dense)           (None, 3)                 195       
=================================================================
Total params: 407,203
Trainable params: 407,203
Non-trainable params: 0
_________________________________________________________________
Model: "Phi_inv"
_________________________________________________________________
Layer (type)                 Output Shape              Param #   
=================================================================
input_2 (InputLayer)         [(None, 3)]               0         
_________________________________________________________________
decoding_layer_1 (Dense)     (None, 64)                256       
_________________________________________________________________
decoding_layer_2 (Dense)     (None, 128)               8320      
_________________________________________________________________
decoding_layer_3 (Dense)     (None, 512)               66048     
_________________________________________________________________
decoding_layer_4 (Dense)     (None, 512)               262656    
_________________________________________________________________
decoding_layer_5 (Dense)     (None, 128)               65664     
_________________________________________________________________
decoding_layer_6 (Dense)     (None, 32)                4128      
_________________________________________________________________
decoded_layer (Dense)        (None, 4)                 132       
=================================================================
Total params: 407,204
Trainable params: 407,204
Non-trainable params: 0
_________________________________________________________________
