2021-06-26
loss,… mse,… mae,… Loss,autoencoding_loss
Optimizer,Adam
Learning Rate,.001
Steps Per Epoch,50
Batch Size,4096
Epochs,100

Model: "Autoencoder"
_________________________________________________________________
Layer (type)                 Output Shape              Param #   
=================================================================
Phi (Functional)             (None, 3)                 400867    
_________________________________________________________________
Phi_inv (Functional)         (None, 4)                 400868    
=================================================================
Total params: 801,735
Trainable params: 801,735
Non-trainable params: 0
_________________________________________________________________
Model: "Phi"
_________________________________________________________________
Layer (type)                 Output Shape              Param #   
=================================================================
input_1 (InputLayer)         [(None, 4)]               0         
_________________________________________________________________
encoding_layer_1 (Dense)     (None, 32)                160       
_________________________________________________________________
encoding_layer_2 (Dense)     (None, 128)               4224      
_________________________________________________________________
encoding_layer_3 (Dense)     (None, 512)               66048     
_________________________________________________________________
encoding_layer_4 (Dense)     (None, 512)               262656    
_________________________________________________________________
encoding_layer_5 (Dense)     (None, 128)               65664     
_________________________________________________________________
encoding_layer_6 (Dense)     (None, 16)                2064      
_________________________________________________________________
bottleneck (Dense)           (None, 3)                 51        
=================================================================
Total params: 400,867
Trainable params: 400,867
Non-trainable params: 0
_________________________________________________________________
Model: "Phi_inv"
_________________________________________________________________
Layer (type)                 Output Shape              Param #   
=================================================================
input_2 (InputLayer)         [(None, 3)]               0         
_________________________________________________________________
decoding_layer_1 (Dense)     (None, 16)                64        
_________________________________________________________________
decoding_layer_2 (Dense)     (None, 128)               2176      
_________________________________________________________________
decoding_layer_3 (Dense)     (None, 512)               66048     
_________________________________________________________________
decoding_layer_4 (Dense)     (None, 512)               262656    
_________________________________________________________________
decoding_layer_5 (Dense)     (None, 128)               65664     
_________________________________________________________________
decoding_layer_6 (Dense)     (None, 32)                4128      
_________________________________________________________________
decoded_layer (Dense)        (None, 4)                 132       
=================================================================
Total params: 400,868
Trainable params: 400,868
Non-trainable params: 0
_________________________________________________________________
