2021-06-26
loss,… mse,… mae,… Loss,autoencoding_loss
Optimizer,Adam
Learning Rate,.001
Steps Per Epoch,50
Batch Size,4096
Epochs,100

Model: "Autoencoder"
_________________________________________________________________
Layer (type)                 Output Shape              Param #   
=================================================================
Phi (Functional)             (None, 3)                 575875    
_________________________________________________________________
Phi_inv (Functional)         (None, 4)                 575876    
=================================================================
Total params: 1,151,751
Trainable params: 1,151,751
Non-trainable params: 0
_________________________________________________________________
Model: "Phi"
_________________________________________________________________
Layer (type)                 Output Shape              Param #   
=================================================================
input_1 (InputLayer)         [(None, 4)]               0         
_________________________________________________________________
encoding_layer_1 (Dense)     (None, 128)               640       
_________________________________________________________________
encoding_layer_2 (Dense)     (None, 256)               33024     
_________________________________________________________________
encoding_layer_3 (Dense)     (None, 512)               131584    
_________________________________________________________________
encoding_layer_4 (Dense)     (None, 512)               262656    
_________________________________________________________________
encoding_layer_5 (Dense)     (None, 256)               131328    
_________________________________________________________________
encoding_layer_6 (Dense)     (None, 64)                16448     
_________________________________________________________________
bottleneck (Dense)           (None, 3)                 195       
=================================================================
Total params: 575,875
Trainable params: 575,875
Non-trainable params: 0
_________________________________________________________________
Model: "Phi_inv"
_________________________________________________________________
Layer (type)                 Output Shape              Param #   
=================================================================
input_2 (InputLayer)         [(None, 3)]               0         
_________________________________________________________________
decoding_layer_1 (Dense)     (None, 64)                256       
_________________________________________________________________
decoding_layer_2 (Dense)     (None, 256)               16640     
_________________________________________________________________
decoding_layer_3 (Dense)     (None, 512)               131584    
_________________________________________________________________
decoding_layer_4 (Dense)     (None, 512)               262656    
_________________________________________________________________
decoding_layer_5 (Dense)     (None, 256)               131328    
_________________________________________________________________
decoding_layer_6 (Dense)     (None, 128)               32896     
_________________________________________________________________
decoded_layer (Dense)        (None, 4)                 516       
=================================================================
Total params: 575,876
Trainable params: 575,876
Non-trainable params: 0
_________________________________________________________________
