2021-06-26
loss,… mse,… mae,… Loss,autoencoding_loss
Optimizer,Adam
Learning Rate,.001
Steps Per Epoch,50
Batch Size,4096
Epochs,100

Model: "Autoencoder"
_________________________________________________________________
Layer (type)                 Output Shape              Param #   
=================================================================
Phi (Functional)             (None, 3)                 532083    
_________________________________________________________________
Phi_inv (Functional)         (None, 4)                 532084    
=================================================================
Total params: 1,064,167
Trainable params: 1,064,167
Non-trainable params: 0
_________________________________________________________________
Model: "Phi"
_________________________________________________________________
Layer (type)                 Output Shape              Param #   
=================================================================
input_1 (InputLayer)         [(None, 4)]               0         
_________________________________________________________________
encoding_layer_1 (Dense)     (None, 16)                80        
_________________________________________________________________
encoding_layer_2 (Dense)     (None, 256)               4352      
_________________________________________________________________
encoding_layer_3 (Dense)     (None, 512)               131584    
_________________________________________________________________
encoding_layer_4 (Dense)     (None, 512)               262656    
_________________________________________________________________
encoding_layer_5 (Dense)     (None, 256)               131328    
_________________________________________________________________
encoding_layer_6 (Dense)     (None, 8)                 2056      
_________________________________________________________________
bottleneck (Dense)           (None, 3)                 27        
=================================================================
Total params: 532,083
Trainable params: 532,083
Non-trainable params: 0
_________________________________________________________________
Model: "Phi_inv"
_________________________________________________________________
Layer (type)                 Output Shape              Param #   
=================================================================
input_2 (InputLayer)         [(None, 3)]               0         
_________________________________________________________________
decoding_layer_1 (Dense)     (None, 8)                 32        
_________________________________________________________________
decoding_layer_2 (Dense)     (None, 256)               2304      
_________________________________________________________________
decoding_layer_3 (Dense)     (None, 512)               131584    
_________________________________________________________________
decoding_layer_4 (Dense)     (None, 512)               262656    
_________________________________________________________________
decoding_layer_5 (Dense)     (None, 256)               131328    
_________________________________________________________________
decoding_layer_6 (Dense)     (None, 16)                4112      
_________________________________________________________________
decoded_layer (Dense)        (None, 4)                 68        
=================================================================
Total params: 532,084
Trainable params: 532,084
Non-trainable params: 0
_________________________________________________________________
