2021-06-26
loss,… mse,… mae,… Loss,autoencoding_loss
Optimizer,Adam
Learning Rate,.001
Steps Per Epoch,50
Batch Size,4096
Epochs,100

Model: "Autoencoder"
_________________________________________________________________
Layer (type)                 Output Shape              Param #   
=================================================================
Phi (Functional)             (None, 3)                 362307    
_________________________________________________________________
Phi_inv (Functional)         (None, 4)                 362308    
=================================================================
Total params: 724,615
Trainable params: 724,615
Non-trainable params: 0
_________________________________________________________________
Model: "Phi"
_________________________________________________________________
Layer (type)                 Output Shape              Param #   
=================================================================
input_1 (InputLayer)         [(None, 4)]               0         
_________________________________________________________________
encoding_layer_1 (Dense)     (None, 64)                320       
_________________________________________________________________
encoding_layer_2 (Dense)     (None, 512)               33280     
_________________________________________________________________
encoding_layer_3 (Dense)     (None, 512)               262656    
_________________________________________________________________
encoding_layer_4 (Dense)     (None, 128)               65664     
_________________________________________________________________
bottleneck (Dense)           (None, 3)                 387       
=================================================================
Total params: 362,307
Trainable params: 362,307
Non-trainable params: 0
_________________________________________________________________
Model: "Phi_inv"
_________________________________________________________________
Layer (type)                 Output Shape              Param #   
=================================================================
input_2 (InputLayer)         [(None, 3)]               0         
_________________________________________________________________
decoding_layer_1 (Dense)     (None, 128)               512       
_________________________________________________________________
decoding_layer_2 (Dense)     (None, 512)               66048     
_________________________________________________________________
decoding_layer_3 (Dense)     (None, 512)               262656    
_________________________________________________________________
decoding_layer_4 (Dense)     (None, 64)                32832     
_________________________________________________________________
decoded_layer (Dense)        (None, 4)                 260       
=================================================================
Total params: 362,308
Trainable params: 362,308
Non-trainable params: 0
_________________________________________________________________
