2021-06-26
loss,… mse,… mae,… Loss,autoencoding_loss
Optimizer,Adam
Learning Rate,.001
Steps Per Epoch,50
Batch Size,4096
Epochs,100

Model: "Autoencoder"
_________________________________________________________________
Layer (type)                 Output Shape              Param #   
=================================================================
Phi (Functional)             (None, 3)                 5323      
_________________________________________________________________
Phi_inv (Functional)         (None, 4)                 5324      
=================================================================
Total params: 10,647
Trainable params: 10,647
Non-trainable params: 0
_________________________________________________________________
Model: "Phi"
_________________________________________________________________
Layer (type)                 Output Shape              Param #   
=================================================================
input_1 (InputLayer)         [(None, 4)]               0         
_________________________________________________________________
encoding_layer_1 (Dense)     (None, 8)                 40        
_________________________________________________________________
encoding_layer_2 (Dense)     (None, 64)                576       
_________________________________________________________________
encoding_layer_3 (Dense)     (None, 64)                4160      
_________________________________________________________________
encoding_layer_4 (Dense)     (None, 8)                 520       
_________________________________________________________________
bottleneck (Dense)           (None, 3)                 27        
=================================================================
Total params: 5,323
Trainable params: 5,323
Non-trainable params: 0
_________________________________________________________________
Model: "Phi_inv"
_________________________________________________________________
Layer (type)                 Output Shape              Param #   
=================================================================
input_2 (InputLayer)         [(None, 3)]               0         
_________________________________________________________________
decoding_layer_1 (Dense)     (None, 8)                 32        
_________________________________________________________________
decoding_layer_2 (Dense)     (None, 64)                576       
_________________________________________________________________
decoding_layer_3 (Dense)     (None, 64)                4160      
_________________________________________________________________
decoding_layer_4 (Dense)     (None, 8)                 520       
_________________________________________________________________
decoded_layer (Dense)        (None, 4)                 36        
=================================================================
Total params: 5,324
Trainable params: 5,324
Non-trainable params: 0
_________________________________________________________________
