…
021-06-30
loss,… val_loss,… Loss,autoencoding_loss,autoencoding_loss,autoencoding_loss
Optimizer,Adam,Adam,Adam
Learning Rate,.001,0.0001,0.0001
Steps Per Epoch,1,1,1
Batch Size,100000,100000,100000
Epochs,100,150,750

Model: "functional_3"
_________________________________________________________________
Layer (type)                 Output Shape              Param #   
=================================================================
input_4 (InputLayer)         [(None, 2)]               0         
_________________________________________________________________
nonlinea_layer_1 (Dense)     (None, 32)                96        
_________________________________________________________________
nonlinear_layer_2 (Dense)    (None, 64)                2112      
_________________________________________________________________
nonlinear_layer_3 (Dense)    (None, 128)               8320      
_________________________________________________________________
nonlinear_layer_4 (Dense)    (None, 64)                8256      
_________________________________________________________________
nonlinear_layer_5 (Dense)    (None, 16)                1040      
_________________________________________________________________
evolved_state_layer (Dense)  (None, 2)                 34        
=================================================================
Total params: 19,858
Trainable params: 19,858
Non-trainable params: 0
_________________________________________________________________
