2021-06-13
loss,… Loss:autoencoding_loss
Optimizer:Adam
Learning Rate:.001
Steps Per Epoch:50
States Per Step:512

Model: "Phi"
_________________________________________________________________
Layer (type)                 Output Shape              Param #   
=================================================================
input_1 (InputLayer)         [(None, 4)]               0         
_________________________________________________________________
encoding_layer_1 (Dense)     (None, 8)                 40        
_________________________________________________________________
encoding_layer_2 (Dense)     (None, 16)                144       
_________________________________________________________________
encoding_layer_3 (Dense)     (None, 8)                 136       
_________________________________________________________________
bottleneck (Dense)           (None, 2)                 18        
=================================================================
Total params: 338
Trainable params: 338
Non-trainable params: 0
_________________________________________________________________

Model: "Phi_inv"
_________________________________________________________________
Layer (type)                 Output Shape              Param #   
=================================================================
input_2 (InputLayer)         [(None, 2)]               0         
_________________________________________________________________
decoding_layer_1 (Dense)     (None, 8)                 24        
_________________________________________________________________
decoding_layer_2 (Dense)     (None, 16)                144       
_________________________________________________________________
decoding_layer_3 (Dense)     (None, 8)                 136       
_________________________________________________________________
decoded_layer (Dense)        (None, 4)                 36        
=================================================================
Total params: 340
Trainable params: 340
Non-trainable params: 0
_________________________________________________________________

Model: "Autoencoder"
_________________________________________________________________
Layer (type)                 Output Shape              Param #   
=================================================================
functional_1 (Functional)    (None, 2)                 338       
_________________________________________________________________
functional_3 (Functional)    (None, 4)                 340       
=================================================================
Total params: 678
Trainable params: 678
Non-trainable params: 0
_________________________________________________________________
