2021-06-26
loss,… mse,… mae,… Loss,autoencoding_loss
Optimizer,Adam
Learning Rate,.001
Steps Per Epoch,50
Batch Size,4096
Epochs,100

Model: "Autoencoder"
_________________________________________________________________
Layer (type)                 Output Shape              Param #   
=================================================================
Phi (Functional)             (None, 3)                 333219    
_________________________________________________________________
Phi_inv (Functional)         (None, 4)                 333220    
=================================================================
Total params: 666,439
Trainable params: 666,439
Non-trainable params: 0
_________________________________________________________________
Model: "Phi"
_________________________________________________________________
Layer (type)                 Output Shape              Param #   
=================================================================
input_1 (InputLayer)         [(None, 4)]               0         
_________________________________________________________________
encoding_layer_1 (Dense)     (None, 32)                160       
_________________________________________________________________
encoding_layer_2 (Dense)     (None, 64)                2112      
_________________________________________________________________
encoding_layer_3 (Dense)     (None, 512)               33280     
_________________________________________________________________
encoding_layer_4 (Dense)     (None, 512)               262656    
_________________________________________________________________
encoding_layer_5 (Dense)     (None, 64)                32832     
_________________________________________________________________
encoding_layer_6 (Dense)     (None, 32)                2080      
_________________________________________________________________
bottleneck (Dense)           (None, 3)                 99        
=================================================================
Total params: 333,219
Trainable params: 333,219
Non-trainable params: 0
_________________________________________________________________
Model: "Phi_inv"
_________________________________________________________________
Layer (type)                 Output Shape              Param #   
=================================================================
input_2 (InputLayer)         [(None, 3)]               0         
_________________________________________________________________
decoding_layer_1 (Dense)     (None, 32)                128       
_________________________________________________________________
decoding_layer_2 (Dense)     (None, 64)                2112      
_________________________________________________________________
decoding_layer_3 (Dense)     (None, 512)               33280     
_________________________________________________________________
decoding_layer_4 (Dense)     (None, 512)               262656    
_________________________________________________________________
decoding_layer_5 (Dense)     (None, 64)                32832     
_________________________________________________________________
decoding_layer_6 (Dense)     (None, 32)                2080      
_________________________________________________________________
decoded_layer (Dense)        (None, 4)                 132       
=================================================================
Total params: 333,220
Trainable params: 333,220
Non-trainable params: 0
_________________________________________________________________
